ir_version: 3
producer_name: "CNTK"
producer_version: "2.5.1"
domain: "ai.cntk"
model_version: 1
graph {
  node {
    input: "Parameter193"
    input: "Parameter193_..
    1_shape"
    output: "Parameter193_reshape1"
    name: "Times212_reshape1"
    op_type: "Reshape"
    doc_string: ""
    domain: ""
  }
  node {
    input: "Input3"
    input: "Parameter5"
    output: "Convolution28_Output_0"
    name: "Convolution28"
    op_type: "Conv"
    attribute {
      name: "kernel_shape"
      ints: 5
      ints: 5
      type: INTS
    }
    attribute {
      name: "strides"
      ints: 1
      ints: 1
      type: INTS
    }
    attribute {
      name: "auto_pad"
      s: "SAME_UPPER"
      type: STRING
    }
    attribute {
      name: "group"
      i: 1
      type: INT
    }
    attribute {
      name: "dilations"
      ints: 1
      ints: 1
      type: INTS
    }
    doc_string: ""
    domain: ""
  }
  node {
    input: "Convolution28_Output_0"
    input: "Parameter6"
    output: "Plus30_Output_0"
    name: "Plus30"
    op_type: "Add"
    doc_string: ""
    domain: ""
  }
  node {
    input: "Plus30_Output_0"
    output: "ReLU32_Output_0"
    name: "ReLU32"
    op_type: "Relu"
    doc_string: ""
    domain: ""
  }
  node {
    input: "ReLU32_Output_0"
    output: "Pooling66_Output_0"
    name: "Pooling66"
    op_type: "MaxPool"
    attribute {
      name: "kernel_shape"
      ints: 2
      ints: 2
      type: INTS
    }
    attribute {
      name: "strides"
      ints: 2
      ints: 2
      type: INTS
    }
    attribute {
      name: "pads"
      ints: 0
      ints: 0
      ints: 0
      ints: 0
      type: INTS
    }
    attribute {
      name: "auto_pad"
      s: "NOTSET"
      type: STRING
    }
    doc_string: ""
    domain: ""
  }
  node {
    input: "Pooling66_Output_0"
    input: "Parameter87"
    output: "Convolution110_Output_0"
    name: "Convolution110"
    op_type: "Conv"
    attribute {
      name: "kernel_shape"
      ints: 5
      ints: 5
      type: INTS
    }
    attribute {
      name: "strides"
      ints: 1
      ints: 1
      type: INTS
    }
    attribute {
      name: "auto_pad"
      s: "SAME_UPPER"
      type: STRING
    }
    attribute {
      name: "group"
      i: 1
      type: INT
    }
    attribute {
      name: "dilations"
      ints: 1
      ints: 1
      type: INTS
    }
    doc_string: ""
    domain: ""
  }
  node {
    input: "Convolution110_Output_0"
    input: "Parameter88"
    output: "Plus112_Output_0"
    name: "Plus112"
    op_type: "Add"
    doc_string: ""
    domain: ""
  }
  node {
    input: "Plus112_Output_0"
    output: "ReLU114_Output_0"
    name: "ReLU114"
    op_type: "Relu"
    doc_string: ""
    domain: ""
  }
  node {
    input: "ReLU114_Output_0"
    output: "Pooling160_Output_0"
    name: "Pooling160"
    op_type: "MaxPool"
    attribute {
      name: "kernel_shape"
      ints: 3
      ints: 3
      type: INTS
    }
    attribute {
      name: "strides"
      ints: 3
      ints: 3
      type: INTS
    }
    attribute {
      name: "pads"
      ints: 0
      ints: 0
      ints: 0
      ints: 0
      type: INTS
    }
    attribute {
      name: "auto_pad"
      s: "NOTSET"
      type: STRING
    }
    doc_string: ""
    domain: ""
  }
  node {
    input: "Pooling160_Output_0"
    input: "Pooling160_Output_0_reshape0_shape"
    output: "Pooling160_Output_0_reshape0"
    name: "Times212_reshape0"
    op_type: "Reshape"
    doc_string: ""
    domain: ""
  }
  node {
    input: "Pooling160_Output_0_reshape0"
    input: "Parameter193_reshape1"
    output: "Times212_Output_0"
    name: "Times212"
    op_type: "MatMul"
    doc_string: ""
    domain: ""
  }
  node {
    input: "Times212_Output_0"
    input: "Parameter194"
    output: "Plus214_Output_0"
    name: "Plus214"
    op_type: "Add"
    doc_string: ""
    domain: ""
  }
  name: "CNTKGraph"
  initializer {
    dims: 16
    dims: 4
    dims: 4
    dims: 10
    data_type: 1
…
    name: "Parameter193"
  }
  initializer {
    dims: 16
    dims: 8
    dims: 5
    dims: 5
    data_type: 1
…
    name: "Parameter87"
  }
  initializer {
    dims: 8
    dims: 1
    dims: 5
    dims: 5
    data_type: 1
…
    name: "Parameter5"
  }
  initializer {
    dims: 8
    dims: 1
    dims: 1
    data_type: 1
    float_data: -0.161539719
    float_data: -0.433835655
    float_data: 0.091641359
    float_data: -0.0168522168
    float_data: -0.0650264397
    float_data: -0.131737873
    float_data: 0.0204175506
    float_data: -0.121110231
    name: "Parameter6"
  }
  initializer {
    dims: 16
    dims: 1
    dims: 1
    data_type: 1
…
    name: "Parameter88"
  }
  initializer {
    dims: 2
    data_type: 7
    int64_data: 1
    int64_data: 256
    name: "Pooling160_Output_0_reshape0_shape"
  }
  initializer {
    dims: 2
    data_type: 7
    int64_data: 256
    int64_data: 10
    name: "Parameter193_reshape1_shape"
  }
  initializer {
    dims: 1
    dims: 10
    data_type: 1
    float_data: -0.0448560268
    float_data: 0.00779166119
    float_data: 0.0681008175
    float_data: 0.0299937408
    float_data: -0.126409635
    float_data: 0.14021875
    float_data: -0.0552849025
    float_data: -0.0493838154
    float_data: 0.0843220502
    float_data: -0.0545404144
    name: "Parameter194"
  }
  input {
    name: "Input3"
    type {
      tensor_type {
        elem_type: 1
        shape {
          dim {
            dim_value: 1
          }
          dim {
            dim_value: 1
          }
          dim {
            dim_value: 28
          }
          dim {
            dim_value: 28
          }
        }
      }
    }
  }
  input {
    name: "Parameter5"
    type {
      tensor_type {
        elem_type: 1
        shape {
          dim {
            dim_value: 8
          }
          dim {
            dim_value: 1
          }
          dim {
            dim_value: 5
          }
          dim {
            dim_value: 5
          }
        }
      }
    }
  }
  input {
    name: "Parameter6"
    type {
      tensor_type {
        elem_type: 1
        shape {
          dim {
            dim_value: 8
          }
          dim {
            dim_value: 1
          }
          dim {
            dim_value: 1
          }
        }
      }
    }
  }
  input {
    name: "Parameter87"
    type {
      tensor_type {
        elem_type: 1
        shape {
          dim {
            dim_value: 16
          }
          dim {
            dim_value: 8
          }
          dim {
            dim_value: 5
          }
          dim {
            dim_value: 5
          }
        }
      }
    }
  }
  input {
    name: "Parameter88"
    type {
      tensor_type {
        elem_type: 1
        shape {
          dim {
            dim_value: 16
          }
          dim {
            dim_value: 1
          }
          dim {
            dim_value: 1
          }
        }
      }
    }
  }
  input {
    name: "Pooling160_Output_0_reshape0_shape"
    type {
      tensor_type {
        elem_type: 7
        shape {
          dim {
            dim_value: 2
          }
        }
      }
    }
  }
  input {
    name: "Parameter193"
    type {
      tensor_type {
        elem_type: 1
        shape {
          dim {
            dim_value: 16
          }
          dim {
            dim_value: 4
          }
          dim {
            dim_value: 4
          }
          dim {
            dim_value: 10
          }
        }
      }
    }
  }
  input {
    name: "Parameter193_reshape1_shape"
    type {
      tensor_type {
        elem_type: 7
        shape {
          dim {
            dim_value: 2
          }
        }
      }
    }
  }
  input {
    name: "Parameter194"
    type {
      tensor_type {
        elem_type: 1
        shape {
          dim {
            dim_value: 1
          }
          dim {
            dim_value: 10
          }
        }
      }
    }
  }
  output {
    name: "Plus214_Output_0"
    type {
      tensor_type {
        elem_type: 1
        shape {
          dim {
            dim_value: 1
          }
          dim {
            dim_value: 10
          }
        }
      }
    }
  }
  value_info {
    name: "Parameter193_reshape1"
    type {
      tensor_type {
        elem_type: 1
        shape {
          dim {
            dim_value: 256
          }
          dim {
            dim_value: 10
          }
        }
      }
    }
  }
  value_info {
    name: "Convolution28_Output_0"
    type {
      tensor_type {
        elem_type: 1
        shape {
          dim {
            dim_value: 1
          }
          dim {
            dim_value: 8
          }
          dim {
            dim_value: 28
          }
          dim {
            dim_value: 28
          }
        }
      }
    }
  }
  value_info {
    name: "Plus30_Output_0"
    type {
      tensor_type {
        elem_type: 1
        shape {
          dim {
            dim_value: 1
          }
          dim {
            dim_value: 8
          }
          dim {
            dim_value: 28
          }
          dim {
            dim_value: 28
          }
        }
      }
    }
  }
  value_info {
    name: "ReLU32_Output_0"
    type {
      tensor_type {
        elem_type: 1
        shape {
          dim {
            dim_value: 1
          }
          dim {
            dim_value: 8
          }
          dim {
            dim_value: 28
          }
          dim {
            dim_value: 28
          }
        }
      }
    }
  }
  value_info {
    name: "Pooling66_Output_0"
    type {
      tensor_type {
        elem_type: 1
        shape {
          dim {
            dim_value: 1
          }
          dim {
            dim_value: 8
          }
          dim {
            dim_value: 14
          }
          dim {
            dim_value: 14
          }
        }
      }
    }
  }
  value_info {
    name: "Convolution110_Output_0"
    type {
      tensor_type {
        elem_type: 1
        shape {
          dim {
            dim_value: 1
          }
          dim {
            dim_value: 16
          }
          dim {
            dim_value: 14
          }
          dim {
            dim_value: 14
          }
        }
      }
    }
  }
  value_info {
    name: "Plus112_Output_0"
    type {
      tensor_type {
        elem_type: 1
        shape {
          dim {
            dim_value: 1
          }
          dim {
            dim_value: 16
          }
          dim {
            dim_value: 14
          }
          dim {
            dim_value: 14
          }
        }
      }
    }
  }
  value_info {
    name: "ReLU114_Output_0"
    type {
      tensor_type {
        elem_type: 1
        shape {
          dim {
            dim_value: 1
          }
          dim {
            dim_value: 16
          }
          dim {
            dim_value: 14
          }
          dim {
            dim_value: 14
          }
        }
      }
    }
  }
  value_info {
    name: "Pooling160_Output_0"
    type {
      tensor_type {
        elem_type: 1
        shape {
          dim {
            dim_value: 1
          }
          dim {
            dim_value: 16
          }
          dim {
            dim_value: 4
          }
          dim {
            dim_value: 4
          }
        }
      }
    }
  }
  value_info {
    name: "Pooling160_Output_0_reshape0"
    type {
      tensor_type {
        elem_type: 1
        shape {
          dim {
            dim_value: 1
          }
          dim {
            dim_value: 256
          }
        }
      }
    }
  }
  value_info {
    name: "Times212_Output_0"
    type {
      tensor_type {
        elem_type: 1
        shape {
          dim {
            dim_value: 1
          }
          dim {
            dim_value: 10
          }
        }
      }
    }
  }
}
opset_import {
  domain: ""
  version: 8
}
