ir_version: 4
producer_name: "keras2onnx"
producer_version: "1.5.0"
domain: "onnx"
model_version: 0
doc_string: ""
graph {
  node {
    input: "dense_1_input_01"
    input: "W"
    output: "transformed_tensor"
    name: "dense_1"
    op_type: "MatMul"
    doc_string: ""
    domain: ""
  }
  node {
    input: "transformed_tensor"
    input: "B"
    output: "biased_tensor_name"
    name: "Add"
    op_type: "Add"
    domain: ""
  }
  node {
    input: "biased_tensor_name"
    output: "dense_1_Relu_0"
    name: "Relu"
    op_type: "Relu"
    domain: ""
  }
  node {
    input: "dense_1_Relu_0"
    input: "W1"
    output: "transformed_tensor1"
    name: "dense_2"
    op_type: "MatMul"
    domain: ""
  }
  node {
    input: "transformed_tensor1"
    input: "B1"
    output: "biased_tensor_name1"
    name: "Add1"
    op_type: "Add"
    domain: ""
  }
  node {
    input: "biased_tensor_name1"
    output: "dense_2_Relu_0"
    name: "Relu1"
    op_type: "Relu"
    domain: ""
  }
  node {
    input: "dense_2_Relu_0"
    input: "W2"
    output: "transformed_tensor2"
    name: "dense_3"
    op_type: "MatMul"
    domain: ""
  }
  node {
    input: "transformed_tensor2"
    input: "B2"
    output: "biased_tensor_name2"
    name: "Add2"
    op_type: "Add"
    domain: ""
  }
  node {
    input: "biased_tensor_name2"
    output: "dense_3_Relu_0"
    name: "Relu2"
    op_type: "Relu"
    domain: ""
  }
  node {
    input: "dense_3_Relu_0"
    input: "W3"
    output: "transformed_tensor3"
    name: "dense_4"
    op_type: "MatMul"
    domain: ""
  }
  node {
    input: "transformed_tensor3"
    input: "B3"
    output: "biased_tensor_name3"
    name: "Add3"
    op_type: "Add"
    domain: ""
  }
  node {
    input: "biased_tensor_name3"
    output: "dense_4_Relu_0"
    name: "Relu3"
    op_type: "Relu"
    domain: ""
  }
  node {
    input: "dense_4_Relu_0"
    input: "W4"
    output: "transformed_tensor4"
    name: "dense_5"
    op_type: "MatMul"
    domain: ""
  }
  node {
    input: "transformed_tensor4"
    input: "B4"
    output: "biased_tensor_name4"
    name: "Add4"
    op_type: "Add"
    domain: ""
  }
  node {
    input: "biased_tensor_name4"
    output: "dense_5_Softmax_01"
    name: "Softmax"
    op_type: "Softmax"
    attribute {
      name: "axis"
      i: -1
      type: INT
    }
    domain: ""
  }
  node {
    input: "dense_5_Softmax_01"
    output: "dense_5_Softmax_0"
    name: "Identity1"
    op_type: "Identity"
    domain: ""
  }
  name: "sequential_1"
  initializer {
    dims: 4
    dims: 35
    data_type: 1
…
    name: "W"
  }
  initializer {
    dims: 35
    data_type: 1
…
    name: "B"
  }
  initializer {
    dims: 35
    dims: 20
    data_type: 1
…
    name: "W1"
  }
  initializer {
    dims: 20
    data_type: 1
…
    name: "B1"
  }
  initializer {
    dims: 20
    dims: 12
    data_type: 1
…
    name: "W2"
  }
  initializer {
    dims: 12
    data_type: 1
    float_data: 0.128777847
    float_data: -0.0184266716
    float_data: 0.246388
    float_data: 0.20594801
    float_data: 0.315217942
    float_data: 0.312157243
    float_data: -0.0410031378
    float_data: 0.0620193556
    float_data: 0.272538483
    float_data: 0.233960703
    float_data: -0.0201388635
    float_data: -0.116127007
    name: "B2"
  }
  initializer {
    dims: 12
    dims: 8
    data_type: 1
…
    name: "W3"
  }
  initializer {
    dims: 8
    data_type: 1
    float_data: -0.0369823
    float_data: -0.0771938
    float_data: 0.281971455
    float_data: -0.0149281397
    float_data: 0.0204561241
    float_data: 0.139579579
    float_data: -0.00445259176
    float_data: 0.139927447
    name: "B3"
  }
  initializer {
    dims: 8
    dims: 15
    data_type: 1
…
    name: "W4"
  }
  initializer {
    dims: 15
    data_type: 1
    float_data: -0.378417432
    float_data: -0.365712762
    float_data: -0.203251272
    float_data: -0.205458492
    float_data: -0.185227
    float_data: 0.114220858
    float_data: 0.0195867214
    float_data: 0.322982699
    float_data: 0.206242532
    float_data: 0.301355839
    float_data: 0.208576694
    float_data: 0.14776957
    float_data: -0.0775698647
    float_data: -0.0214463565
    float_data: 0.158099458
    name: "B4"
  }
  input {
    name: "dense_1_input_01"
    type {
      tensor_type {
        elem_type: 1
        shape {
          dim {
            dim_param: "None"
          }
          dim {
            dim_value: 4
          }
        }
      }
    }
  }
  output {
    name: "dense_5_Softmax_0"
    type {
      tensor_type {
        elem_type: 1
        shape {
          dim {
            dim_param: "None"
          }
          dim {
            dim_value: 15
          }
        }
      }
    }
  }
}
opset_import {
  domain: ""
  version: 9
}
